connect4_brain.pth (torch, 94286 bytes, 6 tensors)

fc1.weight f4 [128, 42]
00000000: 5299 4cbf 91cd 22bf e258 c9bd 5dce 073e
00000010: ca7d 6fbf 3a1f 08bf 3b5f 0f3f 7538 95be
00000020: 6f68 6c3d 5f19 f1be 5f0c 393d 9fa5 d4be
00000030: d9de 973e 6099 fabe c111 73be 76d4 073e
00000040: 2d56 ffbe 4cfb 1bbd 1571 833e ed46 5d3c
00000050: 2f67 063e eace 61bf 1f2c 5fbe 889f 9abe
00000060: d81a d0be c4a2 86be 5276 853d 6bf2 abbe
00000070: 1d41 75bd 355d 31be e4a3 183d df13 833e
00000080: f9bb 063e 72a5 8c3e 0083 05bf cf32 883e
00000090: 3cb7 ee3c 1b07 c23d e07f 933e 7ee2 983d
000000a0: 0916 ee3c d12d 2bbe 4347 dcbd 016f 1cbe
000000b0: 3a4f 63be 76f7 993d 2154 4d3e f4b7 b53d
000000c0: 3ffb 6a3c 9df9 d63e f613 59bf 9fed f13e
000000d0: 0842 b7be 95e3 3a3d 90b1 03bf 5076 e33d
000000e0: b587 313e bf61 543e 0ffc 52bd 1ebb 46be
000000f0: 7212 56be 95be 87bd 4051 8fbd 7f58 bfbb
00000100: 4c29 13bd 6aac 5b3d da60 c3bc 25e4 58bd
00000110: 2d4a 2b3e 44f9 82be ebdb e13e 20ec 1ebf
00000120: 1771 00be 3a55 5ebe fd15 913b ccea 533e
00000130: 6c8a 073e d394 bdbd 10b6 77bc c5f1 f03b
00000140: ac74 56be 812b 343e 80be e13c 7c57 d23d
00000150: 509a 153f 3a51 073f d1e1 dabe 486f 803e
00000160: e11a 75be a524 a0bb 2c64 273b eb87 013f
00000170: c50d d03d 698c aabd 991f 0ebe 6220 b3be
00000180: ffe1 89be 67b0 f2bd 51de a0bc 0397 273d
00000190: 650e 253e 40a2 9d3e 2338 4bbe e241 87be
000001a0: 5d0e 2c3e ce05 41be 71a0 6abd 6ab3 82be
000001b0: 6f53 02be 957e 873d a984 22bd e40a 893e
000001c0: 9fd2 a23d 1e98 903d d2b1 a23c b300 d63b
000001d0: 089b f33d ed6c f8be f37a 083e 02ad c13e
000001e0: ed53 6b3c 29b6 443e 3e20 8cbe f757 b43d
000001f0: 87a3 193d 2d94 79bd caa6 c9bd 7f85 48be
00000200: 8ad5 d2be 184a bbbd 51b3 84bf ce1d 783e
00000210: f1d2 75bd 7f3b 523e 9aab 393d a84b 49bf
00000220: 69a8 363e f496 debe c453 d33e aacc e2be
00000230: 3d8f b73e 88e7 9a3d 7ac9 47bf d6f6 563e
00000240: 7b99 51bd a068 823e 6b7c 273e 6dba 9ebe
00000250: b89a 58bd 4b0a 78be 6544 adbd f35a a4be
00000260: d7da d8bd f80f a43e 7bac 593c fb68 173e
00000270: 51c5 9a3e c75a dabe 1d92 11bd 0914 d4bd
00000280: fa2c debd d84d b6bc b518 25bd d019 463d
00000290: 91b3 893e ce77 053e 49c7 1c3d 9e07 f9bd
000002a0: 00a8 093d 9707 db3d b1ad 1abf 45c6 bb3d
000002b0: db66 c1be 0f42 2cbd 7d8c 8fbe 90e2 85bd
000002c0: b1ea 0abe a201 eabe ceed 363e 17df 13be
000002d0: 6997 de3e c700 97bd db4d 39be e9ed ddbd
000002e0: 8c3f a9be 4834 07be e29a 2bbd b98d 9d3c
000002f0: 14b1 563e 9e8a 473e ec53 18be 1be2 fbbe
00000300: fc3c 493e 7767 1abd 10e1 db3d ea1b 753e
00000310: 8704 4f3e 4ecf 8ebd a846 e93b 927b bcbe
00000320: 76af 02bd ac70 873e 41eb cc3e a82c 543e
00000330: dfc9 27be d8f4 e0be 6104 9e3e 2f28 38be
00000340: 419f 2bbe a3b4 c6bd b8cb 6d3e da2e 923e
00000350: 99bf 21bd 760d 87be b8f0 583e f276 e6be
00000360: 1084 80be f9c8 98be 9ca6 c63e c318 063e
00000370: d08e 6ebe 9a39 07bf 1ce4 eabe 1d13 93be
00000380: 1b5a eabd d0b8 4ebe dd3c 9b3e 26ab 0f3e
00000390: 9511 d03e a582 873e 2e4f f4be 0ed9 60bd
000003a0: 2efc acbe 65b0 ec3e 892f c0be 77f9 36be
000003b0: 34fe 2e3e 18ba f2bd 01e3 273e 43d4 fd3c
000003c0: 72cf a7be 4100 f73c 1989 06be 140c 1a3e
000003d0: a47c 943d c1a3 f63d 572c 8d3c 16c9 97bd
000003e0: 2ac1 16be a2ef 11be d415 a23e 21de 4c3e
000003f0: 312f 03be a220 f2be e8e6 b53e d87d 8d3e
-0.7992145 -0.6359492 -0.09831406 0.13262315 -0.93551314 -0.5317265 0.56004685 -0.29144636
0.057716783 -0.4708967 0.045177814 -0.4153261 0.29662207 -0.4894514 -0.23737241 0.13264641
-0.49870434 -0.038081452 0.25672212 0.01350568 0.13125299 -0.8820635 -0.21794175 -0.30199838
-0.4064548 -0.26296055 0.065167084 -0.33583388 -0.05987655 -0.17320712 0.037265673 0.25601098
0.13157643 0.27469975 -0.52153015 0.26601264 0.029140107 0.094740115 0.28808498 0.07465075
0.029063242 -0.16716696 -0.107557796 -0.1527672 -0.22198191 0.075179026 0.20051624 0.08872977
0.014342128 0.41987315 -0.8479608 0.47251603 -0.35792565 0.045627195 -0.51442814 0.11106551
0.17336924 0.20740412 -0.051509913 -0.19407317 -0.20905474 -0.066281475 -0.06997919 -0.005839407
-0.035928056 0.053631224 -0.023849893 -0.05295195 0.16727515 -0.255808 0.44113097 -0.6207905
-0.1254314 -0.21712199 0.00442767 0.20695037 0.13236398 -0.092569016 -0.015119091 0.00735304
-0.20942944 0.1759472 0.027556658 0.102705926 0.5843859 0.52858317 -0.4275041 0.250849
-0.23936035 -0.004887181 0.0025541885 0.5059802 0.10158876 -0.08327562 -0.13879241 -0.34985644
-0.26930234 -0.11850052 -0.019637259 0.0409155 0.16118772 0.3078785 -0.19845633 -0.26417452
0.16802354 -0.1884987 -0.057281915 -0.25527507 -0.1272714 0.066159405 -0.039677296 0.2676612
0.07950329 0.07060264 0.019860182 0.006530845 0.11894804 -0.48520604 0.13328151 0.37827307
0.014363271 0.19210114 -0.2736835 0.088058405 0.037509467 -0.060932327 -0.098462656 -0.19582175
-0.41178542 -0.09144992 -1.0367223 0.2423012 -0.060015623 0.20530508 0.045329668 -0.7863107
0.17837681 -0.43474543 0.41274846 -0.4429677 0.3585147 0.07563692 -0.78041804 0.20992598
-0.05117176 0.25470448 0.16356055 -0.31001607 -0.052881926 -0.24222676 -0.08460311 -0.3210064
-0.105886154 0.32043433 0.013285751 0.1478614 0.30228665 -0.42647383 -0.035539735 -0.10355384
-0.10848422 -0.022253916 -0.040306766 0.04836446 0.2689481 0.13033983 0.03827599 -0.12159656
0.033607483 0.10694807 -0.6042128 0.09168676 -0.37773785 -0.042055186 -0.28036872 -0.06537354
-0.1356609 -0.4570437 0.17864153 -0.14440571 0.43474892 -0.07373195 -0.18096106 -0.108363934
-0.33056295 -0.13203537 -0.041895755 0.019232618 0.20965987 0.19486472 -0.14875764 -0.49195942
0.1965217 -0.037696328 0.10736287 0.2393643 0.20216571 -0.06973134 0.0071190186 -0.36813027
-0.031905614 0.2645315 0.40023234 0.2072016 -0.16385601 -0.439368 0.30862716 -0.17984079
-0.1675997 -0.097024225 0.23222244 0.2855137 -0.039489362 -0.26377457 0.21185577 -0.45012623
-0.25100756 -0.2984083 0.38798988 0.13095383 -0.23296666 -0.5282227 -0.4587716 -0.2872552
-0.114429675 -0.20187688 0.30319872 0.14030132 0.40638414 0.2646686 -0.4771666 -0.0548945
-0.33786148 0.46228328 -0.37536266 -0.17868601 0.17089158 -0.11851901 0.16395189 0.030985003
-0.32775456 0.030151488 -0.13138236 0.1504367 0.07250336 0.12042952 0.017233057 -0.07411401
-0.14722124 -0.14251569 0.3165728 0.2000661 -0.12810971 -0.47290522 0.3552773 0.27635074

fc1.bias f4 [128]
00000000: 0c97 3d3e 77ac 5a3e 7b71 553e 6c7e f13c
00000010: 2c74 15bd b31f 643e d714 d73e 1f8b 203e
00000020: 1ff8 8cbd b8cb b43e 5573 14bd 2a0c 75be
00000030: 712d 50bd 3f1c 77bc 343e b7bd 7a92 6a3c
00000040: b5f7 633d a5f2 f33e f411 3c3e 58e0 f53d
00000050: 3199 0d3d e21c afbd 212c 1ebe 3be4 fa3e
00000060: b4f3 293c 70ed d43d f7f5 37be 03d0 633b
00000070: 7643 7d3e 2335 903d d1d2 41be b5bf b53d
00000080: e13a 933d 8b14 e33d 5386 2d3d c647 55bb
00000090: 9855 e4bd 0d14 953e 21c0 d3bd 2e03 33bd
000000a0: 9b9a 7b3e c140 03be 3097 1cbe df61 f63d
000000b0: 41b5 523e 9e3c 1f3e 7a70 2cbe d1ad 08be
000000c0: c039 73bd 29c8 dcbd 8fe3 433e bca4 83bd
000000d0: b0e8 21be cb84 853e 35b0 7e3e 9089 9d3d
000000e0: 9040 983e cfa1 67be 5d2c aa3d c8c7 35be
000000f0: 5e99 0f3e 177a d93c 722e b73c 1967 253e
00000100: a9a9 2fbe e514 6fbd bc1b 8cbe 5f88 813e
00000110: ca36 553e e870 023c 5c19 6bbe 0281 d23b
00000120: a7b6 943d e91f 4d3e e216 f1bc a2d3 213e
00000130: 7a9a a93e 991d 6bbe 5a70 8a3e bbb2 aebd
00000140: 5bdd 2f3f b8c0 133c 96e4 633d adc5 bc3d
00000150: 9ffd 543e 0a6c 373e 95a6 cdbd f63b 993e
00000160: be48 b8bd 3478 7d3e 622d a0bd 6282 cdbd
00000170: 1f62 55be fff6 a3bd c71c b1bb b33e a03e
00000180: 5a73 82bd bb4f 51be dd66 903e 74b2 a83e
00000190: 80d5 673e 95d6 aa3d 7b9c 963e ab51 453e
000001a0: 7022 c83e b839 aa3d 4246 713e 822e 3a3e
000001b0: 9ddd 40be 7637 94bd 8494 ed3c e512 973e
000001c0: 6030 863d 3de5 2c3d b19b cebc 0743 e93d
000001d0: 05dd f63d 4ca2 933e 0fbd 693e c474 d33d
000001e0: 2215 b43d 63f5 cb3d e530 28bd 7523 72bd
000001f0: a84a a73d 23ce 163e 0536 053e 5e39 263e
0.18514651 0.21354853 0.2084407 0.029479228 -0.036487743 0.22277717 0.42008087 0.1567807
-0.06883263 0.35311675 -0.0362428 -0.23930421 -0.050824586 -0.015082418 -0.08947411 0.014317149
0.055656154 0.4764606 0.18366224 0.12005681 0.034569923 -0.08550431 -0.15446521 0.4900225
0.010373045 0.1039685 -0.17964922 0.0034761436 0.24732766 0.07041385 -0.18928076 0.08874456
0.07188965 0.11087903 0.04236443 -0.0032544 -0.11149138 0.2911686 -0.1033938 -0.043704204
0.24570696 -0.1281767 -0.15292048 0.12030386 0.20576955 0.15550467 -0.16839781 -0.13347556
-0.059381247 -0.10780365 0.19129775 -0.06427905 -0.1581142 0.26077875 0.24871905 0.076922536
0.29736757 -0.22620319 0.08309243 -0.17751992 0.14023349 0.026547475 0.022361014 0.1615261
-0.17154564 -0.058369536 -0.2736491 0.25299355 0.20821682 0.007961489 -0.22958893 0.0064240703
0.07261401 0.20031704 -0.029429857 0.15803388 0.3312567 -0.2296051 0.27038842 -0.08530184
0.68697137 0.009018116 0.05563792 0.09217391 0.20799874 0.17912307 -0.100415386 0.2992856
-0.089982495 0.24752885 -0.07821156 -0.10034634 -0.20838211 -0.08006095 -0.005405042 0.31297836
-0.06369658 -0.20440571 0.28203478 0.3294865 0.22640038 0.083417095 0.2941626 0.19269435
0.39088774 0.0831179 0.23561957 0.18181804 -0.18834539 -0.07237141 0.029001482 0.29506603
0.065521955 0.042210806 -0.025220724 0.113897376 0.12053875 0.2883476 0.22826026 0.10325006
0.08793093 0.09958913 -0.041062254 -0.059115846 0.081685364 0.14727072 0.13008888 0.16232821

fc2.weight f4 [128, 128]
00000000: e50a d5bd 700d 55bd faaf f33b 9233 0abe
00000010: 75b7 ca3b 08da c6bc 2828 94bd f540 eb3c
00000020: 2e9b 13bd 41b2 3ebd 1e1e 633d 99c6 fabc
00000030: cb32 cdbd f457 b73a 551d 85bd c0a0 f5bd
00000040: 8d1d 1f3c 66a9 313d 036c e6bc 3130 e7bd
00000050: c48f 83bd 9732 9bbc fee6 e4bd 90db a43c
00000060: 396c 133d 93bb 083d fd82 ccbc 1d59 80ba
00000070: 6a19 26bd 7fe3 943c bf5c 3d3d bc63 92bc
00000080: 4997 73bd 1a5d 3cbd d5d0 8b3c fda1 60bd
00000090: 20b2 9d3c ded2 57bd b25d c53c 147d 60bd
000000a0: 4628 82bd c807 0cbd 1bc1 c9bd 4b84 70bc
000000b0: ae7e 233c c6a2 26bc d9b1 36bd f00f 61bc
000000c0: e8d8 96bd 324a 8c3d 38e3 023d 627e cdbd
000000d0: e4af 123d b77a cdbc 55ab b6bd 2761 8d3b
000000e0: e4fb e2bb d098 8ebc 84d4 abbd 5685 453d
000000f0: 74d8 cdbd b29a 61bd 2319 8ebc cb7b b3bb
00000100: d471 bebd 59d3 d3bd 00f0 8537 7b25 aebc
00000110: 643d 09bc f8e1 053d 6347 66bc 3392 90bd
00000120: ee79 85bd 40b9 34bc 56e0 b6bd 4039 a83d
00000130: e0de 013c 2918 50bd 5362 c7bd 011c 56bc
00000140: 0233 473d f8d2 a3bc b38f 3a3d 7058 123c
00000150: 3421 de3d 05ac a93c 02df 2cbc 8061 25bd
00000160: 74c6 d73c 8bec 0cbd d058 403b c7a7 17bc
00000170: 656d 8cbc 044d fa3c 63a0 1c3d 4b9a e4bd
00000180: b3d4 813d 5568 a3bd abfb 553d 5a86 c9bd
00000190: 855f 33bd 6e13 163d b306 75bd 8aef d5bd
000001a0: b025 d7bd aaf4 08bd 2d05 98bd becc 78bd
000001b0: 76b8 203d 3eff 1f3d 7733 efbc de6b bfbd
000001c0: e8dc cbbc d65b 61bd 77fa babc 2882 98bc
000001d0: c85d 5d3c 8f41 453d 0962 113d c6e4 e0bd
000001e0: d12a ccbd 961f efbd 08e9 a2bd cbb6 b4bd
000001f0: ade8 aabd 05bb 90bb b30b 313d 705e d7bc
00000200: 4988 71be 1e33 4a3e 88f7 46bd 4b67 8e3e
00000210: a7a8 123d 742b f0bd 527c 353e 55b1 d1be
00000220: f3db fabe 78ca 37be 202b 0a3e 51bc 8bbe
00000230: b905 143d ed80 453e 34a7 dd3e 8e8c 673e
00000240: 65ae 96bc 7d04 0a3e 798f 253f 8798 213d
00000250: 7ee5 b03e e922 8c3e bf34 063d d6d3 173f
00000260: beb5 873e 03fa 83be cdf1 163f 8503 80bd
00000270: f1f5 1e3e 3124 0abe 64de d93d 8150 6abe
00000280: 14ce 81be 6ea9 45be 6812 3a3e 9238 88be
00000290: 9fb1 23be 40f1 d23e f1c8 1abf 9d28 85be
000002a0: 0890 913d 9687 06bf d07d a8be f4d1 91bb
000002b0: 263e e93d 83f0 c1ba 531c d2be 0b18 c53d
000002c0: 7e43 85be 050a 11bf 31f6 2c3d aa4a 9ebe
000002d0: 7dd5 3e3d 375d 0abf 5521 d7bd 7d0e 18be
000002e0: ed4e abbe b095 94bd 8ea5 9abe 67d6 f93d
000002f0: 21c6 ff3c 1d3b 00be f791 9d3e 4233 983c
00000300: 96b0 0b3d a87a d13e ce7f c63e 8f9f babd
00000310: a136 ecbe fce1 1fbe a54b f63e 5a24 af3e
00000320: 5712 073e 62f1 5bbd f629 37be 2e20 b2be
00000330: f40e 9b3e 9289 6f3d 5085 03bf 8d40 1bbe
00000340: dd89 953e aee8 b7be 21e7 893d 1a34 643e
00000350: 2499 043f 0402 d53d b407 763e acca cc3d
00000360: b34b 0c3e 204d 583e a49d ba3c 9a9c 31be
00000370: 8077 1c3f d169 e5be afe0 d2be 9985 dc3e
00000380: c49c dabd da55 6a3e abcc 583e 74b5 5fbd
00000390: 8134 ae3c 6c9d a93e 9c41 a03e 5762 dfbe
000003a0: 5d76 21bd d74f 0abf 12e1 1dbd 04e0 70be
000003b0: 3c49 ab3e 5d48 4a3e 842b 343e bf25 f73c
000003c0: fab4 ecbe 2729 e33c 14d7 ecbd fbdf 913e
000003d0: 6456 073e 80ac fbbd d946 9bbc 83f6 683e
000003e0: 648b 2a3d e184 5ebb 4c8b 183e e160 bfbc
000003f0: 9d4f 9bbe 1579 233e 1fb7 03bf b179 8dbd
-0.104024686 -0.052014768 0.0074367495 -0.13496235 0.0061864206 -0.024273887 -0.07234222 0.028717497
-0.036036663 -0.046556715 0.055448644 -0.030612277 -0.100194536 0.0013988004 -0.06499735 -0.11993551
0.009711635 0.04337444 -0.028127676 -0.11288489 -0.064239055 -0.018945022 -0.11176871 0.020124227
0.03599188 0.03338201 -0.024964804 -0.0009792183 -0.04055158 0.018174885 0.046231028 -0.017869823
-0.05947045 -0.045987226 0.017067352 -0.054841984 0.019249976 -0.052691333 0.024092529 -0.054806784
-0.06355338 -0.03418711 -0.09851285 -0.014679979 0.009978933 -0.010170644 -0.044603202 -0.01373671
-0.0736559 0.06850089 0.031954974 -0.10033871 0.035812274 -0.025082929 -0.08919398 0.00431456
-0.0069270004 -0.017406851 -0.083901435 0.048222862 -0.10051051 -0.05507917 -0.01734597 -0.0054774038
-0.09299055 -0.10343046 1.5966594e-05 -0.021258106 -0.008376453 0.032686204 -0.014055106 -0.07059135
-0.06517397 -0.011030495 -0.089295074 0.082140446 0.007926673 -0.05080429 -0.09735551 -0.0130682
0.04863263 -0.019998059 0.0455472 0.008932218 0.10846177 0.020711908 -0.010551216 -0.040376186
0.026339747 -0.034405272 0.0029349811 -0.00925631 -0.017142007 0.030554302 0.038238894 -0.111622415
0.06339397 -0.07978884 0.052241962 -0.09840079 -0.043792266 0.036639623 -0.059820842 -0.10446079
-0.10505235 -0.033436455 -0.07422862 -0.060742132 0.039238416 0.039061777 -0.029199345 -0.09346746
-0.02488561 -0.055019222 -0.02282451 -0.01861675 0.013511129 0.048158225 0.035493884 -0.10981135
-0.09969104 -0.116759464 -0.079546034 -0.088239275 -0.08345161 -0.0044168257 0.043224048 -0.026290148
-0.23587145 0.19746062 -0.048575908 0.2781318 0.03580537 -0.11727038 0.17723206 -0.40955606
-0.48995933 -0.1794833 0.13493013 -0.27292112 0.03613827 0.19287463 0.43291628 0.22612211
-0.018393705 0.13478275 0.64672047 0.039452102 0.3455009 0.27370384 0.032765146 0.5930761
0.26505846 -0.2577668 0.5896271 -0.06250671 0.15523507 -0.13490368 0.10638121 -0.22882272
-0.25352538 -0.19302914 0.18171084 -0.2660566 -0.15985726 0.41199684 -0.6046286 -0.26007548
0.0710755 -0.5255064 -0.32908487 -0.004450077 0.11388807 -0.001479641 -0.41037235 0.096237265
-0.26028055 -0.56655914 0.042226974 -0.3091634 0.046590317 -0.54048485 -0.105044045 -0.14849277
-0.33458653 -0.07255113 -0.30204433 0.12199097 0.031222405 -0.1252255 0.30775425 0.01857913
0.034103952 0.40913892 0.38769382 -0.09112465 -0.4613543 -0.1561355 0.48104587 0.34207422
0.1319059 -0.053696997 -0.178871 -0.34790176 0.30284846 0.058480807 -0.51375294 -0.15161343
0.29206744 -0.35919708 0.067335375 0.222855 0.51796174 0.10400775 0.24026376 0.09999594
0.13700752 0.21123171 0.022780247 -0.17344895 0.6111984 -0.44807294 -0.41187045 0.43070677
-0.10674432 0.22884312 0.21171825 -0.054616407 0.02126527 0.33127916 0.31300056 -0.43629715
-0.03941952 -0.54028076 -0.038544722 -0.23522955 0.3345431 0.19754167 0.17594725 0.030169366
-0.46231824 0.027729584 -0.115644604 0.28491196 0.13216549 -0.12288761 -0.018954681 0.22750287
0.04163684 -0.0033953714 0.14896888 -0.023361625 -0.30334178 0.15964158 -0.51451296 -0.069079764

fc2.bias f4 [128]
00000000: 730e 00be 9aac c33d 3608 a1bc 4304 753d
00000010: 3036 d73d f1e3 543e 0b90 173d 08e9 5b3d
00000020: 4a58 363d a560 bbbd 8fe9 4c3d 9949 453e
00000030: 1823 0a3e c345 d93d d558 613e 7a26 afbd
00000040: d983 f93d 92ed e0bc 93ba d7bb 50dd 74bc
00000050: 0da3 3a3e 5958 2e3e adaa dc3d 5009 68bc
00000060: e13e 8fbd 8598 08bd d10d 8c3c 760c a83d
00000070: 9c7e f53c eb24 ddbd fcf9 b63d b23d 2dbd
00000080: 9938 c1bd f3e4 69bc 76ec 113e 8043 a63b
00000090: 58df e13c 601b e43d 2dc9 acbd e47f 013e
000000a0: be23 0d3e 2a8d 7d3b be17 fbbd 65e3 5f3d
000000b0: c81a bc3d de95 bb3c 9700 5f3e c488 c13d
000000c0: 5973 453e f7ac be3c 7a89 79bc e7df af3d
000000d0: 8bee c73d 1eb3 123d 5022 9e3c 1adb 193d
000000e0: bcb6 263d 8d1e 053d ef17 5c3e ba74 ffbc
000000f0: 95fb 953d 1d73 85bc 39fb 5cbd 3389 d83c
00000100: 1219 92bc c688 ae3e 04aa df3d a774 303e
00000110: ef1f 203d 6584 bfbd 2f5a 5bbd cc6e 573c
00000120: d13e 2c3b 7e7e 913d d695 f33d f16a d8bd
00000130: 26c4 c73d 9ddd a33c 74ca 8e3e 69b6 02be
00000140: 8087 b337 2120 85bb bbf4 b63d 3a59 6a3e
00000150: 2537 9d3b 350a 92bd 0642 0c3d bff3 9e3d
00000160: 4312 eebd 0400 593a cef7 a93d b675 e9bd
00000170: 75d1 56bd 824c 233e c5b3 95bd cf24 953d
00000180: f88c 423d 149a af3d b8c7 ab3d 087f 283e
00000190: 00c7 b73d 2c71 c1bd 809f 54be 4d46 a83d
000001a0: 37f6 6fbc f373 033e f131 b93c 8c9d 053e
000001b0: b413 01bd 7435 cfbd 03f2 993e 7766 343d
000001c0: 55bd d03d 08ad eb3d 3136 5f3c 5b7c 3b3e
000001d0: 000c 4c3d 9ed9 05bd 8650 583c b3cc b93d
000001e0: 4b92 b93d a04f f53d 8c67 383d e69f 253b
000001f0: 8f05 113e 75db d1bc 10d7 223e 138d 243e
-0.12505512 0.095544055 -0.019657236 0.059818517 0.10508382 0.20790078 0.037002604 0.053689033
0.044517793 -0.09149293 0.050027426 0.19266357 0.1348995 0.10609009 0.22006543 -0.08552261
0.12183351 -0.027457032 -0.0065835207 -0.014945343 0.18226261 0.1702589 0.10774741 -0.0141623765
-0.06994415 -0.03334858 0.017096432 0.08205502 0.029967599 -0.10798057 0.089343995 -0.042295165
-0.09434623 -0.014275777 0.14250359 0.0050739646 0.027572319 0.11138034 -0.08436809 0.12646443
0.13783166 0.0038688877 -0.12260388 0.05466022 0.091847956 0.02289861 0.21777569 0.09449914
0.19282283 0.023275835 -0.015230531 0.08587628 0.09762295 0.03581535 0.01930347 0.037562467
0.040701613 0.03249984 0.21493505 -0.03118359 0.07323376 -0.016290242 -0.053950522 0.02643261
-0.01783422 0.34088725 0.109211 0.17232 0.039092954 -0.09351424 -0.053552803 0.013148975
0.0026282559 0.071042046 0.11893813 -0.105672725 0.09754209 0.020003134 0.27888834 -0.12764896
2.140156e-05 -0.004062668 0.089333974 0.228856 0.0047978335 -0.07130853 0.034242652 0.07761335
-0.11624577 0.00082778954 0.08299218 -0.11399405 -0.052445848 0.15947154 -0.07309679 0.07282411
0.04749772 0.0857431 0.08387703 0.16454709 0.08973503 -0.09445414 -0.2076397 0.08216534
-0.014646105 0.128372 0.022606822 0.1304838 -0.03151293 -0.10117617 0.30067453 0.04404303
0.10192362 0.115076125 0.01362376 0.18309157 0.04981613 -0.03267824 0.013202792 0.090722464
0.09061106 0.11978078 0.045020625 0.002527231 0.14162277 -0.02561734 0.15902352 0.1606944

fc3.weight f4 [7, 128]
00000000: 9829 05bd f260 a43e 8064 37bd 4131 ca3d
00000010: 3eba 87bf 4c1f 66bf 4e8e 5d3f 1ef4 b53c
00000020: 5a8b 573e 216b 223e fef3 e2bc b68f 62be
00000030: 306c 8b3d fd4d 32bf b042 a8bf 24c6 503e
00000040: ce42 0d3f 1eca 523d be2e 733f 487b 28bf
00000050: 44c1 e63e f791 ba3d 1a1a b9bc a63e 233e
00000060: c7b8 ac3e 108f 1c3e 2506 cc3d 39ab be3d
00000070: f920 96be 5246 bf3c 8873 30bf 5d13 fa3c
00000080: 9927 873d 2550 e23e e41d 5c3f be80 49bf
00000090: 74f0 e3bd 25e0 d03d c7b1 443d 8424 4f3e
000000a0: 4fd8 883f ba30 053d 1d0e ad3e 4ae2 c13e
000000b0: f9cb 29bf 76c4 243e 3c2d 63bf 8837 0c3e
000000c0: 691a 8fbe 9514 cb3d 525c 7bbc 126f 423e
000000d0: 916c 69bf 5032 a23d 499e 053e 8822 653c
000000e0: 94a0 41bd 3fa7 ebbe 8378 7abc e921 1cbf
000000f0: d1d7 95bf 6373 383e 835a b4bd cb8f 8c3d
00000100: 8980 f93d 575d 6f3d 509e c3be a472 df3a
00000110: 3afc c63d d365 373f c5a8 753e cf45 0c3e
00000120: 25a7 cc3d a68b 92bf f5ce bfbe ffe4 623e
00000130: 1e7a aabc 3aed 4a3f e6f9 8fbf 0439 a2bc
00000140: 9053 b33d 1860 fb3c f9cd edbd 5a5a 95bf
00000150: 0b65 473f 6619 183d 721c a63d 43f3 be3d
00000160: a540 45bd 07de 683e d4b1 ccbf cd2b 973d
00000170: 1483 4e3f bda9 4e3f ab74 b83e 9038 86bf
00000180: b5c4 26bf a3b5 263e fa88 c33e 1319 56bd
00000190: cad6 1e3e 9d99 f93e a0e1 fc3d fa59 c23c
000001a0: b2bd 853d 1f06 18bf d203 473d 3066 1d3e
000001b0: 2697 983e 1b68 65be aaa3 01be f815 bbbf
000001c0: c034 5f3e 6061 b13d a3ad 87bd e0cb b53d
000001d0: 35a9 f9bd d0ac 76bd ca29 e73b e25e 303e
000001e0: 6d42 babf d1ba 833e bc69 8bbe 39ef 503e
000001f0: acc3 973b acfd c53e bdf0 16bd b31a 49bd
00000200: 1267 273d d8a0 70be a0e8 3fbd c033 debd
00000210: 0bfc 72bf 5863 c8be 2664 923e 702c a3bf
00000220: 510e 523d 48d8 53bd fb77 a33c 8dd0 bc3d
00000230: 18e2 f3bc b06f 083f 2e59 343d 8ae9 903e
00000240: cff4 573f 6cd6 683e 7cc9 3cbf 95c0 8e3e
00000250: 3254 9c3e 3870 903e 6d25 a1bf 2aac 0ebe
00000260: 4c57 133e 453f bbbd 2649 e13e dd15 2f3e
00000270: 1e2f 81bf 627e 5f3d bd0c e93e dac4 93bd
00000280: 700a 70bd 7505 63bf 5057 03be 12f0 8abd
00000290: 03d5 2fbd 3ffc 4d3e 1796 e73d b704 0a3e
000002a0: d307 e7be d548 043e 3232 06bf 0419 d4ba
000002b0: e062 5c3e 0d72 bfbc b862 00be bafe 60bc
000002c0: 5a51 57bf 3e02 b0bd b5bc 20be c011 5f3e
000002d0: 127d 8abf 78bb 3f3d 7c9c 723e 88f3 813e
000002e0: e47c dcbd 6e9f 15be cbeb 9e3e 5e5b aabe
000002f0: 1634 86bf 566c 86bc 2ff1 ef3d da91 a13d
00000300: c8a7 9b3d 1cd8 2a3f e5d4 eabe 80b8 67bc
00000310: 610c 80bd b145 ebbd b698 693e e3b9 333d
00000320: f727 9c3d bb04 dfbd 895b 403f b440 713e
00000330: 1c56 3f3e 21bb 203e 526c 50bf 1b8d 45bd
00000340: a671 1b3e d3b8 303e ad19 0a3e dbf5 89bf
00000350: afe2 4f3e 87d4 a33b 4540 7bbe 7126 54be
00000360: 201d 0f3e 32d8 b43d 2810 31be 9f7b 0dbb
00000370: db5d 7bbf 973c 8c3f 1309 7c3e 864d 143f
00000380: 3e58 22bc 263f dd3d 89a5 49be d00b 0a3f
00000390: d3d3 c2bd c6e3 13bd c7f9 b13d b73f 143e
000003a0: 968d 083c 0313 b0bf fc2b 8dbd 3b1e 833e
000003b0: a98d 423e 7cd2 853f f38d 93bf b6e3 13bf
000003c0: c8b2 4d3e 6060 8c3e 0fcd 703d 5372 6a3e
000003d0: 9040 0fbe f68d 5a3d 4b1a 743e 28c4 4b3e
000003e0: dd46 a23e 5023 903d e9b8 283e 1bac fe3d
000003f0: aa66 273e 8465 a4bc ef2e 68bc 513d 073e
-0.03251037 0.32105213 -0.04477358 0.09872676 -1.0603712 -0.89891505 0.86545265 0.02221113
0.21049252 0.15861179 -0.027704235 -0.22125134 0.068077445 -0.6965025 -1.3145351 0.20388085
0.5518006 0.051462285 0.949932 -0.6581311 0.45069325 0.09109872 -0.022595454 0.15941867
0.33734724 0.15288949 0.099621095 0.09310002 -0.2932203 0.023348961 -0.68926287 0.030526811
0.065993495 0.4420177 0.8598311 -0.7871207 -0.11129847 0.10199002 0.048021104 0.20228773
1.0691012 0.032517172 0.3379983 0.37867957 -0.6632686 0.16090569 -0.887409 0.13693058
-0.27949837 0.09916035 -0.015341835 0.18987682 -0.91181284 0.079197526 0.13048662 0.013985284
-0.04727228 -0.46026036 -0.015287521 -0.6098924 -1.1706487 0.18012767 -0.08806326 0.06863364
0.12182719 0.058438625 -0.3820672 0.0017047715 0.09716077 0.71639746 0.23990162 0.13698505
0.09992818 -1.1448867 -0.37462583 0.22157668 -0.020810183 0.7926823 -1.1248138 -0.019802578
0.08756173 0.03068547 -0.11611552 -1.1668198 0.77888554 0.037133597 0.08110894 0.09323742
-0.048157353 0.22740947 -1.5991769 0.07381401 0.8066876 0.8072775 0.3602651 -1.0486012
-0.651439 0.16280226 0.38190442 -0.052270006 0.15511623 0.4875001 0.12347722 0.023724545
0.06530322 -0.5938434 0.048587628 0.15371013 0.29802817 -0.22402994 -0.12660089 -1.4616079
0.21797466 0.08661151 -0.066249155 0.08876777 -0.12190477 -0.0602234 0.007054542 0.17223695
-1.4551522 0.25728467 -0.27229106 0.20403756 0.00463148 0.386701 -0.03685068 -0.049097728
0.04086978 -0.23498857 -0.046852708 -0.10849714 -0.9491584 -0.39138293 0.28592032 -1.2747936
0.051283184 -0.051719934 0.019954672 0.092194654 -0.029770896 0.5329542 0.04403036 0.28303176
0.84357923 0.22738045 -0.7374494 0.27881303 0.30532986 0.28210616 -1.2589546 -0.13932863
0.1438877 -0.09142927 0.4400112 0.17098184 -1.0092504 0.054563887 0.4551753 -0.07215281
-0.058603704 -0.886802 -0.12826276 -0.06784071 -0.042927753 0.20115755 0.11307924 0.13478361
-0.45123157 0.12918408 -0.5242034 -0.0016181772 0.21522093 -0.023369813 -0.12537658 -0.013732607
-0.8410851 -0.08594178 -0.15696986 0.21784115 -1.0819418 0.046809644 0.23692507 0.25381112
-0.107660085 -0.14611599 0.3103927 -0.33272833 -1.0484645 -0.01640908 0.11715924 0.07889147
0.07600361 0.66736007 -0.4586555 -0.014143109 -0.06252361 -0.11487902 0.22812161 0.043878447
0.0762481 -0.10889574 0.7513967 0.23559839 0.18685192 0.15696384 -0.81415284 -0.04823027
0.15180072 0.17258005 0.13486357 -1.0778154 0.20301317 0.0049997005 -0.24536236 -0.20717789
0.13975954 0.088302985 -0.1729132 -0.0021588576 -0.9819009 1.095599 0.24612837 0.5793079
-0.009908734 0.1080306 -0.19692053 0.53924274 -0.095130585 -0.036105894 0.08690219 0.1447743
0.008334538 -1.3755802 -0.06893155 0.25609002 0.18999352 1.045486 -1.1527694 -0.57769334
0.20087731 0.27417278 0.05878931 0.22895174 -0.13989472 0.05335804 0.23838155 0.19899046
0.3169469 0.07037985 0.16476788 0.1243517 0.16347757 -0.020067938 -0.014171346 0.13206984

fc3.bias f4 [7]
00000000: 6a58 903d cd8e aa3c 633b 993c ce41 36bb
00000010: 59ee 233e 57c3 343e 0568 ffbc
0.07048114 0.020820046 0.018705076 -0.0027810219 0.16008891 0.17652641 -0.03117753
